Model: "model"
_________________________________________________________________
 Layer (type)                Output Shape              Param #   
=================================================================
 input_1 (InputLayer)        [(None, 9)]               0         
                                                                 
 multi_category_encoding (Mu  (None, 9)                0         
 ltiCategoryEncoding)                                            
                                                                 
 normalization (Normalizatio  (None, 9)                19        
 n)                                                              
                                                                 
 dense (Dense)               (None, 32)                320       
                                                                 
 re_lu (ReLU)                (None, 32)                0         
                                                                 
 dense_1 (Dense)             (None, 32)                1056      
                                                                 
 re_lu_1 (ReLU)              (None, 32)                0         
                                                                 
 dense_2 (Dense)             (None, 32)                1056      
                                                                 
 re_lu_2 (ReLU)              (None, 32)                0         
                                                                 
 dense_3 (Dense)             (None, 1)                 33        
                                                                 
 classification_head_1 (Acti  (None, 1)                0         
 vation)                                                         
                                                                 
=================================================================
Total params: 2,484
Trainable params: 2,465
Non-trainable params: 19
_________________________________________________________________

accuracy: 66.07%
INFO:tensorflow:Assets written to: breast_cancer_model.tf\assets
…
